YOLO11n：
YOLO11n summary: 181 layers, 2,624,080 parameters, 2,624,064 gradients, 6.6 GFLOPs
YOLO11n summary (fused): 100 layers, 2,616,248 parameters, 0 gradients, 6.5 GFLOPs

                   from  n    params  module                                       arguments                     
  0                  -1  1       464  ultralytics.nn.modules.conv.Conv             [3, 16, 3, 2]                 
  1                  -1  1      4672  ultralytics.nn.modules.conv.Conv             [16, 32, 3, 2]                
  2                  -1  1      6640  ultralytics.nn.modules.block.C3k2            [32, 64, 1, False, 0.25]      
  3                  -1  1     36992  ultralytics.nn.modules.conv.Conv             [64, 64, 3, 2]                
  4                  -1  1     26080  ultralytics.nn.modules.block.C3k2            [64, 128, 1, False, 0.25]     
  5                  -1  1    147712  ultralytics.nn.modules.conv.Conv             [128, 128, 3, 2]              
  6                  -1  1     87040  ultralytics.nn.modules.block.C3k2            [128, 128, 1, True]           
  7                  -1  1    295424  ultralytics.nn.modules.conv.Conv             [128, 256, 3, 2]              
  8                  -1  1    346112  ultralytics.nn.modules.block.C3k2            [256, 256, 1, True]           
  9                  -1  1    164608  ultralytics.nn.modules.block.SPPF            [256, 256, 5]                 
 10                  -1  1    249728  ultralytics.nn.modules.block.C2PSA           [256, 256, 1]                 
 11                  -1  1         0  torch.nn.modules.upsampling.Upsample         [None, 2, 'nearest']          
 12             [-1, 6]  1         0  ultralytics.nn.modules.conv.Concat           [1]                           
 13                  -1  1    111296  ultralytics.nn.modules.block.C3k2            [384, 128, 1, False]          
 14                  -1  1         0  torch.nn.modules.upsampling.Upsample         [None, 2, 'nearest']          
 15             [-1, 4]  1         0  ultralytics.nn.modules.conv.Concat           [1]                           
 16                  -1  1     32096  ultralytics.nn.modules.block.C3k2            [256, 64, 1, False]           
 17                  -1  1     36992  ultralytics.nn.modules.conv.Conv             [64, 64, 3, 2]                
 18            [-1, 13]  1         0  ultralytics.nn.modules.conv.Concat           [1]                           
 19                  -1  1     86720  ultralytics.nn.modules.block.C3k2            [192, 128, 1, False]          
 20                  -1  1    147712  ultralytics.nn.modules.conv.Conv             [128, 128, 3, 2]              
 21            [-1, 10]  1         0  ultralytics.nn.modules.conv.Concat           [1]                           
 22                  -1  1    378880  ultralytics.nn.modules.block.C3k2            [384, 256, 1, True]           
 23        [16, 19, 22]  1    464912  ultralytics.nn.modules.head.Detect           [80, [64, 128, 256]] 


在保持检测头结构不变的情况下，引入 ShuffleNetV2、RepGhost 等轻量化模块后，模型参数量降低约 29%，计算量降低约 18%，显著提升了模型的轻量化程度。




YOLO11_Ghost_Rep_shufflev2:
                   from  n    params  module                                       arguments                     
  0                  -1  1       464  ultralytics.nn.modules.conv.Conv             [3, 16, 3, 2]                 
  1                  -1  1      4672  ultralytics.nn.modules.conv.Conv             [16, 32, 3, 2]                
  2                  -1  1      3968  ultralytics.nn.modules.block.ShuffleV2Block  [32, 64, 32, 3, 2]            
  3                  -1  1     14080  ultralytics.nn.modules.block.ShuffleV2Block  [64, 128, 64, 3, 2]           
  4                  -1  1     52736  ultralytics.nn.modules.block.ShuffleV2Block  [128, 256, 128, 3, 2]         
  5                  -1  1     34688  ultralytics.nn.modules.block.ShuffleV2Block  [256, 256, 128, 3, 1]         
  6                  -1  1    164608  ultralytics.nn.modules.block.SPPF            [256, 256, 5]                 
  7                  -1  1    249728  ultralytics.nn.modules.block.C2PSA           [256, 256, 1]                 
  8                  -1  1         0  torch.nn.modules.upsampling.Upsample         [None, 2, 'nearest']          
  9             [-1, 3]  1         0  ultralytics.nn.modules.conv.Concat           [1]                           
 10                  -1  1     36160  ultralytics.nn.modules.block.C3RepGhost      [384, 128, 1, False, 1, 0.25] 
 11                  -1  1         0  torch.nn.modules.upsampling.Upsample         [None, 2, 'nearest']          
 12             [-1, 2]  1         0  ultralytics.nn.modules.conv.Concat           [1]                           
 13                  -1  1      9376  ultralytics.nn.modules.block.C3RepGhost      [192, 64, 1, False, 1, 0.25]  
 14                  -1  1     36992  ultralytics.nn.modules.conv.Conv             [64, 64, 3, 2]                
 15            [-1, 10]  1         0  ultralytics.nn.modules.conv.Concat           [1]                           
 16                  -1  1     23872  ultralytics.nn.modules.block.C3RepGhost      [192, 128, 1, False, 1, 0.25] 
 17                  -1  1    147712  ultralytics.nn.modules.conv.Conv             [128, 128, 3, 2]              
 18             [-1, 7]  1         0  ultralytics.nn.modules.conv.Concat           [1]                           
 19                  -1  1     92800  ultralytics.nn.modules.block.C3RepGhost      [384, 256, 1, True, 1, 0.25]  
 20        [13, 16, 19]  1    897664  ultralytics.nn.modules.head.Detect           [80, [64, 128, 256]]   

YOLO11_Ghost_Rep_shufflev2 summary: 120 layers, 1,864,128 parameters, 0 gradients, 5.4 GFLOPs





yolo11_Ghost_Rep_shufflev2_CA：
                   from  n    params  module                                       arguments                     
  0                  -1  1       464  ultralytics.nn.modules.conv.Conv             [3, 16, 3, 2]                 
  1                  -1  1      4672  ultralytics.nn.modules.conv.Conv             [16, 32, 3, 2]                
  2                  -1  1      3968  ultralytics.nn.modules.block.ShuffleV2Block  [32, 64, 32, 3, 2]            
  3                  -1  1      1688  ultralytics.nn.Extramodule.Attension.coordatt.CoordAtt[64, 64, 8]                   
  4                  -1  1     14080  ultralytics.nn.modules.block.ShuffleV2Block  [64, 128, 64, 3, 2]           
  5                  -1  1      6448  ultralytics.nn.Extramodule.Attension.coordatt.CoordAtt[128, 128, 8]                 
  6                  -1  1     52736  ultralytics.nn.modules.block.ShuffleV2Block  [128, 256, 128, 3, 2]         
  7                  -1  1     25184  ultralytics.nn.Extramodule.Attension.coordatt.CoordAtt[256, 256, 8]                 
  8                  -1  1     34688  ultralytics.nn.modules.block.ShuffleV2Block  [256, 256, 128, 3, 1]         
  9                  -1  1    164608  ultralytics.nn.modules.block.SPPF            [256, 256, 5]                 
 10                  -1  1    249728  ultralytics.nn.modules.block.C2PSA           [256, 256, 1]                 
 11                  -1  1         0  torch.nn.modules.upsampling.Upsample         [None, 2, 'nearest']          
 12             [-1, 5]  1         0  ultralytics.nn.modules.conv.Concat           [1]                           
 13                  -1  1     36160  ultralytics.nn.modules.block.C3RepGhost      [384, 128, 1, False, 1, 0.25] 
 14                  -1  1         0  torch.nn.modules.upsampling.Upsample         [None, 2, 'nearest']          
 15             [-1, 3]  1         0  ultralytics.nn.modules.conv.Concat           [1]                           
 16                  -1  1      9376  ultralytics.nn.modules.block.C3RepGhost      [192, 64, 1, False, 1, 0.25]  
 17                  -1  1     36992  ultralytics.nn.modules.conv.Conv             [64, 64, 3, 2]                
 18            [-1, 13]  1         0  ultralytics.nn.modules.conv.Concat           [1]                           
 19                  -1  1     23872  ultralytics.nn.modules.block.C3RepGhost      [192, 128, 1, False, 1, 0.25] 
 20                  -1  1    147712  ultralytics.nn.modules.conv.Conv             [128, 128, 3, 2]              
 21            [-1, 10]  1         0  ultralytics.nn.modules.conv.Concat           [1]                           
 22                  -1  1     92800  ultralytics.nn.modules.block.C3RepGhost      [384, 256, 1, True, 1, 0.25]  
 23        [16, 19, 22]  1    897664  ultralytics.nn.modules.head.Detect           [80, [64, 128, 256]]          
YOLO11_Ghost_Rep_shufflev2_CA summary: 218 layers, 1,802,840 parameters, 1,802,824 gradients, 5.3 GFLOPs
YOLO11_Ghost_Rep_shufflev2_CA summary: 141 layers, 1,897,448 parameters, 0 gradients, 5.4 GFLOPs

MobileNetV4 summary: 241 layers, 4,067,536 parameters, 4,067,520 gradients, 6.7 GFLOPs
YOLO12n summary (fused): 159 layers, 2,590,824 parameters, 0 gradients, 6.5 GFLOPs
…
